…
load('/content/gdrive/MyDrive/MSDNet-PyTorch/weights/save_models/model_best.pth.tar')\n","optimizer = torch.optim.SGD(model.parameters(), lr=0.001, momentum=0.9, weight_decay=1e-4)\n","model.load_state_dict(checkpoint['state_dict'],strict=False)\n","optimizer.load_state_dict(checkpoint['optimizer'])\n","model.cpu()\n","model.eval()"],"execution_count":null,"outputs":[{"output_type":"execute_result","data":{"text/plain":["MSDNet(\n","  (blocks): ModuleList(\n","    (0): Sequential(\n","      (0): MSDNFirstLayer(\n","        (layers): ModuleList(\n","          (0): Sequential(\n","            (0): Conv2d(3, 32, kernel_size=(7, 7), stride=(2, 2), padding=(3, 3))\n","            (1): BatchNorm2d(32, eps=1e-05, momentum=0.1, affine=True, track_running_stats=True)\n","            (2): ReLU(inplace=True)\n","            (3): MaxPool2d(kernel_size=3, stride=2, padding=1, dilation=1, ceil_mode=False)\n","          )\n","          (1): ConvBasic(\n","            (net): Sequential(\n","              (0): Conv2d(32, 64, kernel_size=(3, 3), stride=(2, 2), padding=(1, 1), bias=False)\n","              (1): BatchNorm2d(64, eps=1e-05, momentum=0.1, affine=True, track_running_stats=True)\n","              (2): ReLU(inplace=True)\n","            )\n","          )\n","          (2): ConvBasic(\n","            (net): Sequential(\n","              (0): Conv2d(64, 128, kernel_size=(3, 3), stride=(2, 2), padding=(1, 1), bias=False)\n","              (1): BatchNorm2d(128, eps=1e-05, momentum=0.1, affine=True, track_running_stats=True)\n","              (2): ReLU(inplace=True)\n","            )\n","          )\n","          (3): ConvBasic(\n","            (net): Sequential(\n","              (0): Conv2d(128, 128, kernel_size=(3, 3), stride=(2, 2), padding=(1, 1), bias=False)\n","              (1): BatchNorm2d(128, eps=1e-05, momentum=0.1, affine=True, track_running_stats=True)\n","              (2): ReLU(inplace=True)\n","            )\n","          )\n","        )\n","      )\n","      (1): MSDNLayer(\n","        (layers): ModuleList(\n","          (0): ConvNormal(\n","            (conv_normal): ConvBN(\n","              (net): Sequential(\n","                (0): Conv2d(32, 16, kernel_size=(1, 1), stride=(1, 1), bias=False)\n","                (1): BatchNorm2d(16, eps=1e-05, momentum=0.1, affine=True, track_running_stats=True)\n","                (2): ReLU(inplace=True)\n","                (3): Conv2d(16, 16, kernel_size=(3, 3), stride=(1, 1), padding=(1, 1), bias=False)\n","                (4): BatchNorm2d(16, eps=1e-05, momentum=0.1, affine=True, track_running_stats=True)\n","                (5): ReLU(inplace=True)\n","              )\n","            )\n","          )\n","          (1): ConvDownNormal(\n","            (conv_down): ConvBN(\n","              (net): Sequential(\n","                (0): Conv2d(32, 16, kernel_size=(1, 1), stride=(1, 1), bias=False)\n","                (1): BatchNorm2d(16, eps=1e-05, momentum=0.1, affine=True, track_running_stats=True)\n","                (2): ReLU(inplace=True)\n","                (3): Conv2d(16, 16, kernel_size=(3, 3), stride=(2, 2), padding=(1, 1), bias=False)\n","                (4): BatchNorm2d(16, eps=1e-05, momentum=0.1, affine=True, track_running_stats=True)\n","                (5): ReLU(inplace=True)\n","              )\n","            )\n","            (conv_normal): ConvBN(\n","              (net): Sequential(\n","                (0): Conv2d(64, 32, kernel_size=(1, 1), stride=(1, 1), bias=False)\n","                (1): BatchNorm2d(32, eps=1e-05, momentum=0.1, affine=True, track_running_stats=True)\n","                (2): ReLU(inplace=True)\n","                (3): Conv2d(32, 16, kernel_size=(3, 3), stride=(1, 1), padding=(1, 1), bias=False)\n","                (4): BatchNorm2d(16, eps=1e-05, momentum=0.1, affine=True, track_running_stats=True)\n","                (5): ReLU(inplace=True)\n","              )\n","            )\n","          )\n","          (2): ConvDownNormal(\n","            (conv_down): ConvBN(\n","              (net): Sequential(\n","                (0): Conv2d(64, 64, kernel_size=(1, 1), stride=(1, 1), bias=False)\n","                (1): BatchNorm2d(64, eps=1e-05, momentum=0.1, affine=True, track_running_stats=True)\n","                (2): ReLU(inplace=True)\n","                (3): Conv2d(64, 32, kernel_size=(3, 3), stride=(2, 2), padding=(1, 1), bias=False)\n","                (4): BatchNorm2d(32, eps=1e-05, momentum=0.1, affine=True, track_running_stats=True)\n","                (5): ReLU(inplace=True)\n","              )\n","            )\n","            (conv_normal): ConvBN(\n","              (net): Sequential(\n","                (0): Conv2d(128, 128, kernel_size=(1, 1), stride=(1, 1), bias=False)\n","                (1): BatchNorm2d(128, eps=1e-05, momentum=0.1, affine=True, track_running_stats=True)\n","                (2): ReLU(inplace=True)\n","                (3): Conv2d(128, 32, kernel_size=(3, 3), stride=(1, 1), padding=(1, 1), bias=False)\n","                (4): BatchNorm2d(32, eps=1e-05, momentum=0.1, affine=True, track_running_stats=True)\n","                (5): ReLU(inplace=True)\n","              )\n","            )\n","          )\n","          (3): ConvDownNormal(\n","            (conv_down): ConvBN(\n","              (net): Sequential(\n","                (0): Conv2d(128, 128, kernel_size=(1, 1), stride=(1, 1), bias=False)\n","                (1): BatchNorm2d(128, eps=1e-05, momentum=0.1, affine=True, track_running_stats=True)\n","                (2): ReLU(inplace=True)\n","                (3): Conv2d(128, 32, kernel_size=(3, 3), stride=(2, 2), padding=(1, 1), bias=False)\n","                (4): BatchNorm2d(32, eps=1e-05, momentum=0.1, affine=True, track_running_stats=True)\n","                (5): ReLU(inplace=True)\n","              )\n","            )\n","            (conv_normal): ConvBN(\n","              (net): Sequential(\n","                (0): Conv2d(128, 128, kernel_size=(1, 1), stride=(1, 1), bias=False)\n","                (1): BatchNorm2d(128, eps=1e-05, momentum=0.1, affine=True, track_running_stats=True)\n","                (2): ReLU(inplace=True)\n","                (3): Conv2d(128, 32, kernel_size=(3, 3), stride=(1, 1), padding=(1, 1), bias=False)\n","                (4): BatchNorm2d(32, eps=1e-05, momentum=0.1, affine=True, track_running_stats=True)\n","                (5): ReLU(inplace=True)\n","              )\n","            )\n","          )\n","        )\n","      )\n","      (2): MSDNLayer(\n","        (layers): ModuleList(\n","          (0): ConvNormal(\n","            (conv_normal): ConvBN(\n","              (net): Sequential(\n","                (0): Conv2d(48, 16, kernel_size=(1, 1), stride=(1, 1), bias=False)\n","                (1): BatchNorm2d(16, eps=1e-05, momentum=0.1, affine=True, track_running_stats=True)\n","                (2): ReLU(inplace=True)\n","                (3): Conv2d(16, 16, kernel_size=(3, 3), stride=(1, 1), padding=(1, 1), bias=False)\n","                (4): BatchNorm2d(16, eps=1e-05, momentum=0.1, affine=True, track_running_stats=True)\n","                (5): ReLU(inplace=True)\n","              )\n","            )\n","          )\n","          (1): ConvDownNormal(\n","            (conv_down): ConvBN(\n","              (net): Sequential(\n","                (0): Conv2d(48, 16, kernel_size=(1, 1), stride=(1, 1), bias=False)\n","                (1): BatchNorm2d(16, eps=1e-05, momentum=0.1, affine=True, track_running_stats=True)\n","                (2): ReLU(inplace=True)\n","                (3): Conv2d(16, 16, kernel_size=(3, 3), stride=(2, 2), padding=(1, 1), bias=False)\n","                (4): BatchNorm2d(16, eps=1e-05, momentum=0.1, affine=True, track_running_stats=True)\n","                (5): ReLU(inplace=True)\n","              )\n","            )\n","            (conv_normal): ConvBN(\n","              (net): Sequential(\n","                (0): Conv2d(96, 32, kernel_size=(1, 1), stride=(1, 1), bias=False)\n","                (1): BatchNorm2d(32, eps=1e-05, momentum=0.1, affine=True, track_running_stats=True)\n","                (2): ReLU(inplace=True)\n","                (3): Conv2d(32, 16, kernel_size=(3, 3), stride=(1, 1), padding=(1, 1), bias=False)\n","                (4): BatchNorm2d(16, eps=1e-05, momentum=0.1, affine=True, track_running_stats=True)\n","                (5): ReLU(inplace=True)\n","              )\n","            )\n","          )\n","          (2): ConvDownNormal(\n","            (conv_down): ConvBN(\n","              (net): Sequential(\n","                (0): Conv2d(96, 64, kernel_size=(1, 1), stride=(1, 1), bias=False)\n","                (1): BatchNorm2d(64, eps=1e-05, momentum=0.1, affine=True, track_running_stats=True)\n","                (2): ReLU(inplace=True)\n","                (3): Conv2d(64, 32, kernel_size=(3, 3), stride=(2, 2), padding=(1, 1), bias=False)\n","                (4): BatchNorm2d(32, eps=1e-05, momentum=0.1, affine=True, track_running_stats=True)\n","                (5): ReLU(inplace=True)\n","              )\n","            )\n","            (conv_normal): ConvBN(\n","              (net): Sequential(\n","                (0): Conv2d(192, 128, kernel_size=(1, 1), stride=(1, 1), bias=False)\n","                (1): BatchNorm2d(128, eps=1e-05, momentum=0.1, affine=True, track_running_stats=True)\n","                (2): ReLU(inplace=True)\n","                (3): Conv2d(128, 32, kernel_size=(3, 3), stride=(1, 1), padding=(1, 1), bias=False)\n","                (4): BatchNorm2d(32, eps=1e-05, momentum=0.1, affine=True, track_running_stats=True)\n","                (5): ReLU(inplace=True)\n","              )\n","            )\n","          )\n","          (3): ConvDownNormal(\n","            (conv_down): ConvBN(\n","              (net): Sequential(\n","                (0): Conv2d(192, 128, kernel_size=(1, 1), stride=(1, 1), bias=False)\n","                (1): BatchNorm2d(128, eps=1e-05, momentum=0.1, affine=True, track_running_stats=True)\n","                (2): ReLU(inplace=True)\n","                (3): Conv2d(128, 32, kernel_size=(3, 3), stride=(2, 2), padding=(1, 1), bias=False)\n","                (4): BatchNorm2d(32, eps=1e-05, momentum=0.1, affine=True, track_running_stats=True)\n","                (5): ReLU(inplace=True)\n","              )\n","            )\n","            (conv_normal): ConvBN(\n","              (net): Sequential(\n","                (0): Conv2d(192, 128, kernel_size=(1, 1), stride=(1, 1), bias=False)\n","                (1): BatchNorm2d(128, eps=1e-05, momentum=0.1, affine=True, track_running_stats=True)\n","                (2): ReLU(inplace=True)\n","                (3): Conv2d(128, 32, kernel_size=(3, 3), stride=(1, 1), padding=(1, 1), bias=False)\n","                (4): BatchNorm2d(32, eps=1e-05, momentum=0.1, affine=True, track_running_stats=True)\n","                (5): ReLU(inplace=True)\n","              )\n","            )\n","          )\n","        )\n","      )\n","      (3): MSDNLayer(\n","        (layers): ModuleList(\n","          (0): ConvNormal(\n","            (conv_normal): ConvBN(\n","              (net): Sequential(\n","                (0): Conv2d(64, 16, kernel_size=(1, 1), stride=(1, 1), bias=False)\n","                (1): BatchNorm2d(16, eps=1e-05, momentum=0.1, affine=True, track_running_stats=True)\n","                (2): ReLU(inplace=True)\n","                (3): Conv2d(16, 16, kernel_size=(3, 3), stride=(1, 1), padding=(1, 1), bias=False)\n","                (4): BatchNorm2d(16, eps=1e-05, momentum=0.1, affine=True, track_running_stats=True)\n","                (5): ReLU(inplace=True)\n","              )\n","            )\n","          )\n","          (1): ConvDownNormal(\n","            (conv_down): ConvBN(\n","              (net): Sequential(\n","                (0): Conv2d(64, 16, kernel_size=(1, 1), stride=(1, 1), bias=False)\n","                (1): BatchNorm2d(16, eps=1e-05, momentum=0.1, affine=True, track_running_stats=True)\n","                (2): ReLU(inplace=True)\n","                (3): Conv2d(16, 16, kernel_size=(3, 3), stride=(2, 2), padding=(1, 1), bias=False)\n","                (4): BatchNorm2d(16, eps=1e-05, momentum=0.1, affine=True, track_running_stats=True)\n","                (5): ReLU(inplace=True)\n","              )\n","            )\n","            (conv_normal): ConvBN(\n","              (net): Sequential(\n","                (0): Conv2d(128, 32, kernel_size=(1, 1), stride=(1, 1), bias=False)\n","                (1): BatchNorm2d(32, eps=1e-05, momentum=0.1, affine=True, track_running_stats=True)\n","                (2): ReLU(inplace=True)\n","                (3): Conv2d(32, 16, kernel_size=(3, 3), stride=(1, 1), padding=(1, 1), bias=False)\n","                (4): BatchNorm2d(16, eps=1e-05, momentum=0.1, affine=True, track_running_stats=True)\n","                (5): ReLU(inplace=True)\n","              )\n","            )\n","          )\n","          (2): ConvDownNormal(\n","            (conv_down): ConvBN(\n","              (net): Sequential(\n","                (0): Conv2d(128, 64, kernel_size=(1, 1), stride=(1, 1), bias=False)\n","                (1): BatchNorm2d(64, eps=1e-05, momentum=0.1, affine=True, track_running_stats=True)\n","                (2): ReLU(inplace=True)\n","                (3): Conv2d(64, 32, kernel_size=(3, 3), stride=(2, 2), padding=(1, 1), bias=False)\n","                (4): BatchNorm2d(32, eps=1e-05, momentum=0.1, affine=True, track_running_stats=True)\n","                (5): ReLU(inplace=True)\n","              )\n","            )\n","            (conv_normal): ConvBN(\n","              (net): Sequential(\n","                (0): Conv2d(256, 128, kernel_size=(1, 1), stride=(1, 1), bias=False)\n","                (1): BatchNorm2d(128, eps=1e-05, momentum=0.1, affine=True, track_running_stats=True)\n","                (2): ReLU(inplace=True)\n","                (3): Conv2d(128, 32, kernel_size=(3, 3), stride=(1, 1), padding=(1, 1), bias=False)\n","                (4): BatchNorm2d(32, eps=1e-05, momentum=0.1, affine=True, track_running_stats=True)\n","                (5): ReLU(inplace=True)\n","              )\n","            )\n","          )\n","          (3): ConvDownNormal(\n","            (conv_down): ConvBN(\n","              (net): Sequential(\n","                (0): Conv2d(256, 128, kernel_size=(1, 1), stride=(1, 1), bias=False)\n","                (1): BatchNorm2d(128, eps=1e-05, momentum=0.1, affine=True, track_running_stats=True)\n","                (2): ReLU(inplace=True)\n","                (3): Conv2d(128, 32, kernel_size=(3, 3), stride=(2, 2), padding=(1, 1), bias=False)\n","                (4): BatchNorm2d(32, eps=1e-05, momentum=0.1, affine=True, track_running_stats=True)\n","                (5): ReLU(inplace=True)\n","              )\n","            )\n","            (conv_normal): ConvBN(\n","              (net): Sequential(\n","                (0): Conv2d(256, 128, kernel_size=(1, 1), stride=(1, 1), bias=False)\n","                (1): BatchNorm2d(128, eps=1e-05, momentum=0.1, affine=True, track_running_stats=True)\n","                (2): ReLU(inplace=True)\n","                (3): Conv2d(128, 32, kernel_size=(3, 3), stride=(1, 1), padding=(1, 1), bias=False)\n","                (4): BatchNorm2d(32, eps=1e-05, momentum=0.1, affine=True, track_running_stats=True)\n","                (5): ReLU(inplace=True)\n","              )\n","            )\n","          )\n","        )\n","      )\n","      (4): MSDNLayer(\n","        (layers): ModuleList(\n","          (0): ConvNormal(\n","            (conv_normal): ConvBN(\n","              (net): Sequential(\n","                (0): Conv2d(80, 16, kernel_size=(1, 1), stride=(1, 1), bias=False)\n","                (1): BatchNorm2d(16, eps=1e-05, momentum=0.1, affine=True, track_running_stats=True)\n","                (2): ReLU(inplace=True)\n","                (3): Conv2d(16, 16, kernel_size=(3, 3), stride=(1, 1), padding=(1, 1), bias=False)\n","                (4): BatchNorm2d(16, eps=1e-05, momentum=0.1, affine=True, track_running_stats=True)\n","                (5): ReLU(inplace=True)\n","              )\n","            )\n","          )\n","          (1): ConvDownNormal(\n","            (conv_down): ConvBN(\n","              (net): Sequential(\n","                (0): Conv2d(80, 16, kernel_size=(1, 1), stride=(1, 1), bias=False)\n","                (1): BatchNorm2d(16, eps=1e-05, momentum=0.1, affine=True, track_running_stats=True)\n","                (2): ReLU(inplace=True)\n","                (3): Conv2d(16, 16, kernel_size=(3, 3), stride=(2, 2), padding=(1, 1), bias=False)\n","                (4): BatchNorm2d(16, eps=1e-05, momentum=0.1, affine=True, track_running_stats=True)\n","                (5): ReLU(inplace=True)\n","              )\n","            )\n","            (conv_normal): ConvBN(\n","              (net): Sequential(\n","                (0): Conv2d(160, 32, kernel_size=(1, 1), stride=(1, 1), bias=False)\n","                (1): BatchNorm2d(32, eps=1e-05, momentum=0.1, affine=True, track_running_stats=True)\n","                (2): ReLU(inplace=True)\n","                (3): Conv2d(32, 16, kernel_size=(3, 3), stride=(1, 1), padding=(1, 1), bias=False)\n","                (4): BatchNorm2d(16, eps=1e-05, momentum=0.1, affine=True, track_running_stats=True)\n","                (5): ReLU(inplace=True)\n","              )\n","            )\n","          )\n","          (2): ConvDownNormal(\n","            (conv_down): ConvBN(\n","              (net): Sequential(\n","                (0): Conv2d(160, 64, kernel_size=(1, 1), stride=(1, 1), bias=False)\n","                (1): BatchNorm2d(64, eps=1e-05, momentum=0.1, affine=True, track_running_stats=True)\n","                (2): ReLU(inplace=True)\n","                (3): Conv2d(64, 32, kernel_size=(3, 3), stride=(2, 2), padding=(1, 1), bias=False)\n","                (4): BatchNorm2d(32, eps=1e-05, momentum=0.1, affine=True, track_running_stats=True)\n","                (5): ReLU(inplace=True)\n","              )\n","            )\n","            (conv_normal): ConvBN(\n","              (net): Sequential(\n","                (0): Conv2d(320, 128, kernel_size=(1, 1), stride=(1, 1), bias=False)\n","                (1): BatchNorm2d(128, eps=1e-05, momentum=0.1, affine=True, track_running_stats=True)\n","                (2): ReLU(inplace=True)\n","                (3): Conv2d(128, 32, kernel_size=(3, 3), stride=(1, 1), padding=(1, 1), bias=False)\n","                (4): BatchNorm2d(32, eps=1e-05, momentum=0.1, affine=True, track_running_stats=True)\n","                (5): ReLU(inplace=True)\n","              )\n","            )\n","          )\n","          (3): ConvDownNormal(\n","            (conv_down): ConvBN(\n","              (net): Sequential(\n","                (0): Conv2d(320, 128, kernel_size=(1, 1), stride=(1, 1), bias=False)\n","                (1): BatchNorm2d(128, eps=1e-05, momentum=0.1, affine=True, track_running_stats=True)\n","                (2): ReLU(inplace=True)\n","                (3): Conv2d(128, 32, kernel_size=(3, 3), stride=(2, 2), padding=(1, 1), bias=False)\n","                (4): BatchNorm2d(32, eps=1e-05, momentum=0.1, affine=True, track_running_stats=True)\n","                (5): ReLU(inplace=True)\n","              )\n","            )\n","            (conv_normal): ConvBN(\n","              (net): Sequential(\n","                (0): Conv2d(320, 128, kernel_size=(1, 1), stride=(1, 1), bias=False)\n","                (1): BatchNorm2d(128, eps=1e-05, momentum=0.1, affine=True, track_running_stats=True)\n","                (2): ReLU(inplace=True)\n","                (3): Conv2d(128, 32, kernel_size=(3, 3), stride=(1, 1), padding=(1, 1), bias=False)\n","                (4): BatchNorm2d(32, eps=1e-05, momentum=0.1, affine=True, track_running_stats=True)\n","                (5): ReLU(inplace=True)\n","              )\n","            )\n","          )\n","        )\n","      )\n","    )\n","    (1): Sequential(\n","      (0): MSDNLayer(\n","        (layers): ModuleList(\n","          (0): ConvNormal(\n","            (conv_normal): ConvBN(\n","              (net): Sequential(\n","                (0): Conv2d(96, 16, kernel_size=(1, 1), stride=(1, 1), bias=False)\n","                (1): BatchNorm2d(16, eps=1e-05, momentum=0.1, affine=True, track_running_stats=True)\n","                (2): ReLU(inplace=True)\n","                (3): Conv2d(16, 16, kernel_size=(3, 3), stride=(1, 1), padding=(1, 1), bias=False)\n","                (4): BatchNorm2d(16, eps=1e-05, momentum=0.1, affine=True, track_running_stats=True)\n","                (5): ReLU(inplace=True)\n","              )\n","            )\n","          )\n","          (1): ConvDownNormal(\n","            (conv_down): ConvBN(\n","              (net): Sequential(\n","                (0): Conv2d(96, 16, kernel_size=(1, 1), stride=(1, 1), bias=False)\n","                (1): BatchNorm2d(16, eps=1e-05, momentum=0.1, affine=True, track_running_stats=True)\n","                (2): ReLU(inplace=True)\n","                (3): Conv2d(16, 16, kernel_size=(3, 3), stride=(2, 2), padding=(1, 1), bias=False)\n","                (4): BatchNorm2d(16, eps=1e-05, momentum=0.1, affine=True, track_running_stats=True)\n","                (5): ReLU(inplace=True)\n","              )\n","            )\n","            (conv_normal): ConvBN(\n","              (net): Sequential(\n","                (0): Conv2d(192, 32, kernel_size=(1, 1), stride=(1, 1), bias=False)\n","                (1): BatchNorm2d(32, eps=1e-05, momentum=0.1, affine=True, track_running_stats=True)\n","                (2): ReLU(inplace=True)\n","                (3): Conv2d(32, 16, kernel_size=(3, 3), stride=(1, 1), padding=(1, 1), bias=False)\n","                (4): BatchNorm2d(16, eps=1e-05, momentum=0.1, affine=True, track_running_stats=True)\n","                (5): ReLU(inplace=True)\n","              )\n","            )\n","          )\n","          (2): ConvDownNormal(\n","            (conv_down): ConvBN(\n","              (net): Sequential(\n","                (0): Conv2d(192, 64, kernel_size=(1, 1), stride=(1, 1), bias=False)\n","                (1): BatchNorm2d(64, eps=1e-05, momentum=0.1, affine=True, track_running_stats=True)\n","                (2): ReLU(inplace=True)\n","                (3): Conv2d(64, 32, kernel_size=(3, 3), stride=(2, 2), padding=(1, 1), bias=False)\n","                (4): BatchNorm2d(32, eps=1e-05, momentum=0.1, affine=True, track_running_stats=True)\n","                (5): ReLU(inplace=True)\n","              )\n","            )\n","            (conv_normal): ConvBN(\n","              (net): Sequential(\n","                (0): Conv2d(384, 128, kernel_size=(1, 1), stride=(1, 1), bias=False)\n","                (1): BatchNorm2d(128, eps=1e-05, momentum=0.1, affine=True, track_running_stats=True)\n","                (2): ReLU(inplace=True)\n","                (3): Conv2d(128, 32, kernel_size=(3, 3), stride=(1, 1), padding=(1, 1), bias=False)\n","                (4): BatchNorm2d(32, eps=1e-05, momentum=0.1, affine=True, track_running_stats=True)\n","                (5): ReLU(inplace=True)\n","              )\n","            )\n","          )\n","          (3): ConvDownNormal(\n","            (conv_down): ConvBN(\n","              (net): Sequential(\n","                (0): Conv2d(384, 128, kernel_size=(1, 1), stride=(1, 1), bias=False)\n","                (1): BatchNorm2d(128, eps=1e-05, momentum=0.1, affine=True, track_running_stats=True)\n","                (2): ReLU(inplace=True)\n","                (3): Conv2d(128, 32, kernel_size=(3, 3), stride=(2, 2), padding=(1, 1), bias=False)\n","                (4): BatchNorm2d(32, eps=1e-05, momentum=0.1, affine=True, track_running_stats=True)\n","                (5): ReLU(inplace=True)\n","              )\n","            )\n","            (conv_normal): ConvBN(\n","              (net): Sequential(\n","                (0): Conv2d(384, 128, kernel_size=(1, 1), stride=(1, 1), bias=False)\n","                (1): BatchNorm2d(128, eps=1e-05, momentum=0.1, affine=True, track_running_stats=True)\n","                (2): ReLU(inplace=True)\n","                (3): Conv2d(128, 32, kernel_size=(3, 3), stride=(1, 1), padding=(1, 1), bias=False)\n","                (4): BatchNorm2d(32, eps=1e-05, momentum=0.1, affine=True, track_running_stats=True)\n","                (5): ReLU(inplace=True)\n","              )\n","            )\n","          )\n","        )\n","      )\n","      (1): MSDNLayer(\n","        (layers): ModuleList(\n","          (0): ConvDownNormal(\n","            (conv_down): ConvBN(\n","              (net): Sequential(\n","                (0): Conv2d(112, 16, kernel_size=(1, 1), stride=(1, 1), bias=False)\n","                (1): BatchNorm2d(16, eps=1e-05, momentum=0.1, affine=True, track_running_stats=True)\n","                (2): ReLU(inplace=True)\n","                (3): Conv2d(16, 16, kernel_size=(3, 3), stride=(2, 2), padding=(1, 1), bias=False)\n","                (4): BatchNorm2d(16, eps=1e-05, momentum=0.1, affine=True, track_running_stats=True)\n","                (5): ReLU(inplace=True)\n","              )\n","            )\n","            (conv_normal): ConvBN(\n","              (net): Sequential(\n","                (0): Conv2d(224, 32, kernel_size=(1, 1), stride=(1, 1), bias=False)\n","                (1): BatchNorm2d(32, eps=1e-05, momentum=0.1, affine=True, track_running_stats=True)\n","                (2): ReLU(inplace=True)\n","                (3): Conv2d(32, 16, kernel_size=(3, 3), stride=(1, 1), padding=(1, 1), bias=False)\n","                (4): BatchNorm2d(16, eps=1e-05, momentum=0.1, affine=True, track_running_stats=True)\n","                (5): ReLU(inplace=True)\n","              )\n","            )\n","          )\n","          (1): ConvDownNormal(\n","            (conv_down): ConvBN(\n","              (net): Sequential(\n","                (0): Conv2d(224, 64, kernel_size=(1, 1), stride=(1, 1), bias=False)\n","                (1): BatchNorm2d(64, eps=1e-05, momentum=0.1, affine=True, track_running_stats=True)\n","                (2): ReLU(inplace=True)\n","                (3): Conv2d(64, 32, kernel_size=(3, 3), stride=(2, 2), padding=(1, 1), bias=False)\n","                (4): BatchNorm2d(32, eps=1e-05, momentum=0.1, affine=True, track_running_stats=True)\n","                (5): ReLU(inplace=True)\n","              )\n","            )\n","            (conv_normal): ConvBN(\n","              (net): Sequential(\n","                (0): Conv2d(448, 128, kernel_size=(1, 1), stride=(1, 1), bias=False)\n","                (1): BatchNorm2d(128, eps=1e-05, momentum=0.1, affine=True, track_running_stats=True)\n","                (2): ReLU(inplace=True)\n","                (3): Conv2d(128, 32, kernel_size=(3, 3), stride=(1, 1), padding=(1, 1), bias=False)\n","                (4): BatchNorm2d(32, eps=1e-05, momentum=0.1, affine=True, track_running_stats=True)\n","                (5): ReLU(inplace=True)\n","              )\n","            )\n","          )\n","          (2): ConvDownNormal(\n","            (conv_down): ConvBN(\n","              (net): Sequential(\n","                (0): Conv2d(448, 128, kernel_size=(1, 1), stride=(1, 1), bias=False)\n","                (1): BatchNorm2d(128, eps=1e-05, momentum=0.1, affine=True, track_running_stats=True)\n","                (2): ReLU(inplace=True)\n","                (3): Conv2d(128, 32, kernel_size=(3, 3), stride=(2, 2), padding=(1, 1), bias=False)\n","                (4): BatchNorm2d(32, eps=1e-05, momentum=0.1, affine=True, track_running_stats=True)\n","                (5): ReLU(inplace=True)\n","              )\n","            )\n","            (conv_normal): ConvBN(\n","              (net): Sequential(\n","                (0): Conv2d(448, 128, kernel_size=(1, 1), stride=(1, 1), bias=False)\n","                (1): BatchNorm2d(128, eps=1e-05, momentum=0.1, affine=True, track_running_stats=True)\n","                (2): ReLU(inplace=True)\n","                (3): Conv2d(128, 32, kernel_size=(3, 3), stride=(1, 1), padding=(1, 1), bias=False)\n","                (4): BatchNorm2d(32, eps=1e-05, momentum=0.1, affine=True, track_running_stats=True)\n","                (5): ReLU(inplace=True)\n","              )\n","            )\n","          )\n","        )\n","      )\n","      (2): ParallelModule(\n","        (m): ModuleList(\n","          (0): ConvBasic(\n","            (net): Sequential(\n","              (0): Conv2d(256, 128, kernel_size=(1, 1), stride=(1, 1), bias=False)\n","              (1): BatchNorm2d(128, eps=1e-05, momentum=0.1, affine=True, track_running_stats=True)\n","              (2): ReLU(inplace=True)\n","            )\n","          )\n","          (1): ConvBasic(\n","            (net): Sequential(\n","              (0): Conv2d(512, 256, kernel_size=(1, 1), stride=(1, 1), bias=False)\n","              (1): BatchNorm2d(256, eps=1e-05, momentum=0.1, affine=True, track_running_stats=True)\n","              (2): ReLU(inplace=True)\n","            )\n","          )\n","          (2): ConvBasic(\n","            (net): Sequential(\n","              (0): Conv2d(512, 256, kernel_size=(1, 1), stride=(1, 1), bias=False)\n","              (1): BatchNorm2d(256, eps=1e-05, momentum=0.1, affine=True, track_running_stats=True)\n","              (2): ReLU(inplace=True)\n","            )\n","          )\n","        )\n","      )\n","      (3): MSDNLayer(\n","        (layers): ModuleList(\n","          (0): ConvNormal(\n","            (conv_normal): ConvBN(\n","              (net): Sequential(\n","                (0): Conv2d(128, 64, kernel_size=(1, 1), stride=(1, 1), bias=False)\n","                (1): BatchNorm2d(64, eps=1e-05, momentum=0.1, affine=True, track_running_stats=True)\n","                (2): ReLU(inplace=True)\n","                (3): Conv2d(64, 32, kernel_size=(3, 3), stride=(1, 1), padding=(1, 1), bias=False)\n","                (4): BatchNorm2d(32, eps=1e-05, momentum=0.1, affine=True, track_running_stats=True)\n","                (5): ReLU(inplace=True)\n","              )\n","            )\n","          )\n","          (1): ConvDownNormal(\n","            (conv_down): ConvBN(\n","              (net): Sequential(\n","                (0): Conv2d(128, 64, kernel_size=(1, 1), stride=(1, 1), bias=False)\n","                (1): BatchNorm2d(64, eps=1e-05, momentum=0.1, affine=True, track_running_stats=True)\n","                (2): ReLU(inplace=True)\n","                (3): Conv2d(64, 32, kernel_size=(3, 3), stride=(2, 2), padding=(1, 1), bias=False)\n","                (4): BatchNorm2d(32, eps=1e-05, momentum=0.1, affine=True, track_running_stats=True)\n","                (5): ReLU(inplace=True)\n","              )\n","            )\n","            (conv_normal): ConvBN(\n","              (net): Sequential(\n","                (0): Conv2d(256, 128, kernel_size=(1, 1), stride=(1, 1), bias=False)\n","                (1): BatchNorm2d(128, eps=1e-05, momentum=0.1, affine=True, track_running_stats=True)\n","                (2): ReLU(inplace=True)\n","                (3): Conv2d(128, 32, kernel_size=(3, 3), stride=(1, 1), padding=(1, 1), bias=False)\n","                (4): BatchNorm2d(32, eps=1e-05, momentum=0.1, affine=True, track_running_stats=True)\n","                (5): ReLU(inplace=True)\n","              )\n","            )\n","          )\n","          (2): ConvDownNormal(\n","            (conv_down): ConvBN(\n","              (net): Sequential(\n","                (0): Conv2d(256, 128, kernel_size=(1, 1), stride=(1, 1), bias=False)\n","                (1): BatchNorm2d(128, eps=1e-05, momentum=0.1, affine=True, track_running_stats=True)\n","                (2): ReLU(inplace=True)\n","                (3): Conv2d(128, 32, kernel_size=(3, 3), stride=(2, 2), padding=(1, 1), bias=False)\n","                (4): BatchNorm2d(32, eps=1e-05, momentum=0.1, affine=True, track_running_stats=True)\n","                (5): ReLU(inplace=True)\n","              )\n","            )\n","            (conv_normal): ConvBN(\n","              (net): Sequential(\n","                (0): Conv2d(256, 128, kernel_size=(1, 1), stride=(1, 1), bias=False)\n","                (1): BatchNorm2d(128, eps=1e-05, momentum=0.1, affine=True, track_running_stats=True)\n","                (2): ReLU(inplace=True)\n","                (3): Conv2d(128, 32, kernel_size=(3, 3), stride=(1, 1), padding=(1, 1), bias=False)\n","                (4): BatchNorm2d(32, eps=1e-05, momentum=0.1, affine=True, track_running_stats=True)\n","                (5): ReLU(inplace=True)\n","              )\n","            )\n","          )\n","        )\n","      )\n","      (4): MSDNLayer(\n","        (layers): ModuleList(\n","          (0): ConvNormal(\n","            (conv_normal): ConvBN(\n","              (net): Sequential(\n","                (0): Conv2d(160, 64, kernel_size=(1, 1), stride=(1, 1), bias=False)\n","                (1): BatchNorm2d(64, eps=1e-05, momentum=0.1, affine=True, track_running_stats=True)\n","                (2): ReLU(inplace=True)\n","                (3): Conv2d(64, 32, kernel_size=(3, 3), stride=(1, 1), padding=(1, 1), bias=False)\n","                (4): BatchNorm2d(32, eps=1e-05, momentum=0.1, affine=True, track_running_stats=True)\n","                (5): ReLU(inplace=True)\n","              )\n","            )\n","          )\n","          (1): ConvDownNormal(\n","            (conv_down): ConvBN(\n","              (net): Sequential(\n","                (0): Conv2d(160, 64, kernel_size=(1, 1), stride=(1, 1), bias=False)\n","                (1): BatchNorm2d(64, eps=1e-05, momentum=0.1, affine=True, track_running_stats=True)\n","                (2): ReLU(inplace=True)\n","                (3): Conv2d(64, 32, kernel_size=(3, 3), stride=(2, 2), padding=(1, 1), bias=False)\n","                (4): BatchNorm2d(32, eps=1e-05, momentum=0.1, affine=True, track_running_stats=True)\n","                (5): ReLU(inplace=True)\n","              )\n","            )\n","            (conv_normal): ConvBN(\n","              (net): Sequential(\n","                (0): Conv2d(320, 128, kernel_size=(1, 1), stride=(1, 1), bias=False)\n","                (1): BatchNorm2d(128, eps=1e-05, momentum=0.1, affine=True, track_running_stats=True)\n","                (2): ReLU(inplace=True)\n","                (3): Conv2d(128, 32, kernel_size=(3, 3), stride=(1, 1), padding=(1, 1), bias=False)\n","                (4): BatchNorm2d(32, eps=1e-05, momentum=0.1, affine=True, track_running_stats=True)\n","                (5): ReLU(inplace=True)\n","              )\n","            )\n","          )\n","          (2): ConvDownNormal(\n","            (conv_down): ConvBN(\n","              (net): Sequential(\n","                (0): Conv2d(320, 128, kernel_size=(1, 1), stride=(1, 1), bias=False)\n","                (1): BatchNorm2d(128, eps=1e-05, momentum=0.1, affine=True, track_running_stats=True)\n","                (2): ReLU(inplace=True)\n","                (3): Conv2d(128, 32, kernel_size=(3, 3), stride=(2, 2), padding=(1, 1), bias=False)\n","                (4): BatchNorm2d(32, eps=1e-05, momentum=0.1, affine=True, track_running_stats=True)\n","                (5): ReLU(inplace=True)\n","              )\n","            )\n","            (conv_normal): ConvBN(\n","              (net): Sequential(\n","                (0): Conv2d(320, 128, kernel_size=(1, 1), stride=(1, 1), bias=False)\n","                (1): BatchNorm2d(128, eps=1e-05, momentum=0.1, affine=True, track_running_stats=True)\n","                (2): ReLU(inplace=True)\n","                (3): Conv2d(128, 32, kernel_size=(3, 3), stride=(1, 1), padding=(1, 1), bias=False)\n","                (4): BatchNorm2d(32, eps=1e-05, momentum=0.1, affine=True, track_running_stats=True)\n","                (5): ReLU(inplace=True)\n","              )\n","            )\n","          )\n","        )\n","      )\n","    )\n","    (2): Sequential(\n","      (0): MSDNLayer(\n","        (layers): ModuleList(\n","          (0): ConvNormal(\n","            (conv_normal): ConvBN(\n","              (net): Sequential(\n","                (0): Conv2d(192, 64, kernel_size=(1, 1), stride=(1, 1), bias=False)\n","                (1): BatchNorm2d(64, eps=1e-05, momentum=0.1, affine=True, track_running_stats=True)\n","                (2): ReLU(inplace=True)\n","                (3): Conv2d(64, 32, kernel_size=(3, 3), stride=(1, 1), padding=(1, 1), bias=False)\n","                (4): BatchNorm2d(32, eps=1e-05, momentum=0.1, affine=True, track_running_stats=True)\n","                (5): ReLU(inplace=True)\n","              )\n","            )\n","          )\n","          (1): ConvDownNormal(\n","            (conv_down): ConvBN(\n","              (net): Sequential(\n","                (0): Conv2d(192, 64, kernel_size=(1, 1), stride=(1, 1), bias=False)\n","                (1): BatchNorm2d(64, eps=1e-05, momentum=0.1, affine=True, track_running_stats=True)\n","                (2): ReLU(inplace=True)\n","                (3): Conv2d(64, 32, kernel_size=(3, 3), stride=(2, 2), padding=(1, 1), bias=False)\n","                (4): BatchNorm2d(32, eps=1e-05, momentum=0.1, affine=True, track_running_stats=True)\n","                (5): ReLU(inplace=True)\n","              )\n","            )\n","            (conv_normal): ConvBN(\n","              (net): Sequential(\n","                (0): Conv2d(384, 128, kernel_size=(1, 1), stride=(1, 1), bias=False)\n","                (1): BatchNorm2d(128, eps=1e-05, momentum=0.1, affine=True, track_running_stats=True)\n","                (2): ReLU(inplace=True)\n","                (3): Conv2d(128, 32, kernel_size=(3, 3), stride=(1, 1), padding=(1, 1), bias=False)\n","                (4): BatchNorm2d(32, eps=1e-05, momentum=0.1, affine=True, track_running_stats=True)\n","                (5): ReLU(inplace=True)\n","              )\n","            )\n","          )\n","          (2): ConvDownNormal(\n","            (conv_down): ConvBN(\n","              (net): Sequential(\n","                (0): Conv2d(384, 128, kernel_size=(1, 1), stride=(1, 1), bias=False)\n","                (1): BatchNorm2d(128, eps=1e-05, momentum=0.1, affine=True, track_running_stats=True)\n","                (2): ReLU(inplace=True)\n","                (3): Conv2d(128, 32, kernel_size=(3, 3), stride=(2, 2), padding=(1, 1), bias=False)\n","                (4): BatchNorm2d(32, eps=1e-05, momentum=0.1, affine=True, track_running_stats=True)\n","                (5): ReLU(inplace=True)\n","              )\n","            )\n","            (conv_normal): ConvBN(\n","              (net): Sequential(\n","                (0): Conv2d(384, 128, kernel_size=(1, 1), stride=(1, 1), bias=False)\n","                (1): BatchNorm2d(128, eps=1e-05, momentum=0.1, affine=True, track_running_stats=True)\n","                (2): ReLU(inplace=True)\n","                (3): Conv2d(128, 32, kernel_size=(3, 3), stride=(1, 1), padding=(1, 1), bias=False)\n","                (4): BatchNorm2d(32, eps=1e-05, momentum=0.1, affine=True, track_running_stats=True)\n","                (5): ReLU(inplace=True)\n","              )\n","            )\n","          )\n","        )\n","      )\n","      (1): MSDNLayer(\n","        (layers): ModuleList(\n","          (0): ConvNormal(\n","            (conv_normal): ConvBN(\n","              (net): Sequential(\n","                (0): Conv2d(224, 64, kernel_size=(1, 1), stride=(1, 1), bias=False)\n","                (1): BatchNorm2d(64, eps=1e-05, momentum=0.1, affine=True, track_running_stats=True)\n","                (2): ReLU(inplace=True)\n","                (3): Conv2d(64, 32, kernel_size=(3, 3), stride=(1, 1), padding=(1, 1), bias=False)\n","                (4): BatchNorm2d(32, eps=1e-05, momentum=0.1, affine=True, track_running_stats=True)\n","                (5): ReLU(inplace=True)\n","              )\n","            )\n","          )\n","          (1): ConvDownNormal(\n","            (conv_down): ConvBN(\n","              (net): Sequential(\n","                (0): Conv2d(224, 64, kernel_size=(1, 1), stride=(1, 1), bias=False)\n","                (1): BatchNorm2d(64, eps=1e-05, momentum=0.1, affine=True, track_running_stats=True)\n","                (2): ReLU(inplace=True)\n","                (3): Conv2d(64, 32, kernel_size=(3, 3), stride=(2, 2), padding=(1, 1), bias=False)\n","                (4): BatchNorm2d(32, eps=1e-05, momentum=0.1, affine=True, track_running_stats=True)\n","                (5): ReLU(inplace=True)\n","              )\n","            )\n","            (conv_normal): ConvBN(\n","              (net): Sequential(\n","                (0): Conv2d(448, 128, kernel_size=(1, 1), stride=(1, 1), bias=False)\n","                (1): BatchNorm2d(128, eps=1e-05, momentum=0.1, affine=True, track_running_stats=True)\n","                (2): ReLU(inplace=True)\n","                (3): Conv2d(128, 32, kernel_size=(3, 3), stride=(1, 1), padding=(1, 1), bias=False)\n","                (4): BatchNorm2d(32, eps=1e-05, momentum=0.1, affine=True, track_running_stats=True)\n","                (5): ReLU(inplace=True)\n","              )\n","            )\n","          )\n","          (2): ConvDownNormal(\n","            (conv_down): ConvBN(\n","              (net): Sequential(\n","                (0): Conv2d(448, 128, kernel_size=(1, 1), stride=(1, 1), bias=False)\n","                (1): BatchNorm2d(128, eps=1e-05, momentum=0.1, affine=True, track_running_stats=True)\n","                (2): ReLU(inplace=True)\n","                (3): Conv2d(128, 32, kernel_size=(3, 3), stride=(2, 2), padding=(1, 1), bias=False)\n","                (4): BatchNorm2d(32, eps=1e-05, momentum=0.1, affine=True, track_running_stats=True)\n","                (5): ReLU(inplace=True)\n","              )\n","            )\n","            (conv_normal): ConvBN(\n","              (net): Sequential(\n","                (0): Conv2d(448, 128, kernel_size=(1, 1), stride=(1, 1), bias=False)\n","                (1): BatchNorm2d(128, eps=1e-05, momentum=0.1, affine=True, track_running_stats=True)\n","                (2): ReLU(inplace=True)\n","                (3): Conv2d(128, 32, kernel_size=(3, 3), stride=(1, 1), padding=(1, 1), bias=False)\n","                (4): BatchNorm2d(32, eps=1e-05, momentum=0.1, affine=True, track_running_stats=True)\n","                (5): ReLU(inplace=True)\n","              )\n","            )\n","          )\n","        )\n","      )\n","      (2): MSDNLayer(\n","        (layers): ModuleList(\n","          (0): ConvDownNormal(\n","            (conv_down): ConvBN(\n","              (net): Sequential(\n","                (0): Conv2d(256, 64, kernel_size=(1, 1), stride=(1, 1), bias=False)\n","                (1): BatchNorm2d(64, eps=1e-05, momentum=0.1, affine=True, track_running_stats=True)\n","                (2): ReLU(inplace=True)\n","                (3): Conv2d(64, 32, kernel_size=(3, 3), stride=(2, 2), padding=(1, 1), bias=False)\n","                (4): BatchNorm2d(32, eps=1e-05, momentum=0.1, affine=True, track_running_stats=True)\n","                (5): ReLU(inplace=True)\n","              )\n","            )\n","            (conv_normal): ConvBN(\n","              (net): Sequential(\n","                (0): Conv2d(512, 128, kernel_size=(1, 1), stride=(1, 1), bias=False)\n","                (1): BatchNorm2d(128, eps=1e-05, momentum=0.1, affine=True, track_running_stats=True)\n","                (2): ReLU(inplace=True)\n","                (3): Conv2d(128, 32, kernel_size=(3, 3), stride=(1, 1), padding=(1, 1), bias=False)\n","                (4): BatchNorm2d(32, eps=1e-05, momentum=0.1, affine=True, track_running_stats=True)\n","                (5): ReLU(inplace=True)\n","              )\n","            )\n","          )\n","          (1): ConvDownNormal(\n","            (conv_down): ConvBN(\n","              (net): Sequential(\n","                (0): Conv2d(512, 128, kernel_size=(1, 1), stride=(1, 1), bias=False)\n","                (1): BatchNorm2d(128, eps=1e-05, momentum=0.1, affine=True, track_running_stats=True)\n","                (2): ReLU(inplace=True)\n","                (3): Conv2d(128, 32, kernel_size=(3, 3), stride=(2, 2), padding=(1, 1), bias=False)\n","                (4): BatchNorm2d(32, eps=1e-05, momentum=0.1, affine=True, track_running_stats=True)\n","                (5): ReLU(inplace=True)\n","              )\n","            )\n","            (conv_normal): ConvBN(\n","              (net): Sequential(\n","                (0): Conv2d(512, 128, kernel_size=(1, 1), stride=(1, 1), bias=False)\n","                (1): BatchNorm2d(128, eps=1e-05, momentum=0.1, affine=True, track_running_stats=True)\n","                (2): ReLU(inplace=True)\n","                (3): Conv2d(128, 32, kernel_size=(3, 3), stride=(1, 1), padding=(1, 1), bias=False)\n","                (4): BatchNorm2d(32, eps=1e-05, momentum=0.1, affine=True, track_running_stats=True)\n","                (5): ReLU(inplace=True)\n","              )\n","            )\n","          )\n","        )\n","      )\n","      (3): ParallelModule(\n","        (m): ModuleList(\n","          (0): ConvBasic(\n","            (net): Sequential(\n","              (0): Conv2d(576, 288, kernel_size=(1, 1), stride=(1, 1), bias=False)\n","              (1): BatchNorm2d(288, eps=1e-05, momentum=0.1, affine=True, track_running_stats=True)\n","              (2): ReLU(inplace=True)\n","            )\n","          )\n","          (1): ConvBasic(\n","            (net): Sequential(\n","              (0): Conv2d(576, 288, kernel_size=(1, 1), stride=(1, 1), bias=False)\n","              (1): BatchNorm2d(288, eps=1e-05, momentum=0.1, affine=True, track_running_stats=True)\n","              (2): ReLU(inplace=True)\n","            )\n","          )\n","        )\n","      )\n","      (4): MSDNLayer(\n","        (layers): ModuleList(\n","          (0): ConvNormal(\n","            (conv_normal): ConvBN(\n","              (net): Sequential(\n","                (0): Conv2d(288, 256, kernel_size=(1, 1), stride=(1, 1), bias=False)\n","                (1): BatchNorm2d(256, eps=1e-05, momentum=0.1, affine=True, track_running_stats=True)\n","                (2): ReLU(inplace=True)\n","                (3): Conv2d(256, 64, kernel_size=(3, 3), stride=(1, 1), padding=(1, 1), bias=False)\n","                (4): BatchNorm2d(64, eps=1e-05, momentum=0.1, affine=True, track_running_stats=True)\n","                (5): ReLU(inplace=True)\n","              )\n","            )\n","          )\n","          (1): ConvDownNormal(\n","            (conv_down): ConvBN(\n","              (net): Sequential(\n","                (0): Conv2d(288, 128, kernel_size=(1, 1), stride=(1, 1), bias=False)\n","                (1): BatchNorm2d(128, eps=1e-05, momentum=0.1, affine=True, track_running_stats=True)\n","                (2): ReLU(inplace=True)\n","                (3): Conv2d(128, 32, kernel_size=(3, 3), stride=(2, 2), padding=(1, 1), bias=False)\n","                (4): BatchNorm2d(32, eps=1e-05, momentum=0.1, affine=True, track_running_stats=True)\n","                (5): ReLU(inplace=True)\n","              )\n","            )\n","            (conv_normal): ConvBN(\n","              (net): Sequential(\n","                (0): Conv2d(288, 128, kernel_size=(1, 1), stride=(1, 1), bias=False)\n","                (1): BatchNorm2d(128, eps=1e-05, momentum=0.1, affine=True, track_running_stats=True)\n","                (2): ReLU(inplace=True)\n","                (3): Conv2d(128, 32, kernel_size=(3, 3), stride=(1, 1), padding=(1, 1), bias=False)\n","                (4): BatchNorm2d(32, eps=1e-05, momentum=0.1, affine=True, track_running_stats=True)\n","                (5): ReLU(inplace=True)\n","              )\n","            )\n","          )\n","        )\n","      )\n","    )\n","    (3): Sequential(\n","      (0): MSDNLayer(\n","        (layers): ModuleList(\n","          (0): ConvNormal(\n","            (conv_normal): ConvBN(\n","              (net): Sequential(\n","                (0): Conv2d(352, 256, kernel_size=(1, 1), stride=(1, 1), bias=False)\n","                (1): BatchNorm2d(256, eps=1e-05, momentum=0.1, affine=True, track_running_stats=True)\n","                (2): ReLU(inplace=True)\n","                (3): Conv2d(256, 64, kernel_size=(3, 3), stride=(1, 1), padding=(1, 1), bias=False)\n","                (4): BatchNorm2d(64, eps=1e-05, momentum=0.1, affine=True, track_running_stats=True)\n","                (5): ReLU(inplace=True)\n","              )\n","            )\n","          )\n","          (1): ConvDownNormal(\n","            (conv_down): ConvBN(\n","              (net): Sequential(\n","                (0): Conv2d(352, 128, kernel_size=(1, 1), stride=(1, 1), bias=False)\n","                (1): BatchNorm2d(128, eps=1e-05, momentum=0.1, affine=True, track_running_stats=True)\n","                (2): ReLU(inplace=True)\n","                (3): Conv2d(128, 32, kernel_size=(3, 3), stride=(2, 2), padding=(1, 1), bias=False)\n","                (4): BatchNorm2d(32, eps=1e-05, momentum=0.1, affine=True, track_running_stats=True)\n","                (5): ReLU(inplace=True)\n","              )\n","            )\n","            (conv_normal): ConvBN(\n","              (net): Sequential(\n","                (0): Conv2d(352, 128, kernel_size=(1, 1), stride=(1, 1), bias=False)\n","                (1): BatchNorm2d(128, eps=1e-05, momentum=0.1, affine=True, track_running_stats=True)\n","                (2): ReLU(inplace=True)\n","                (3): Conv2d(128, 32, kernel_size=(3, 3), stride=(1, 1), padding=(1, 1), bias=False)\n","                (4): BatchNorm2d(32, eps=1e-05, momentum=0.1, affine=True, track_running_stats=True)\n","                (5): ReLU(inplace=True)\n","              )\n","            )\n","          )\n","        )\n","      )\n","      (1): MSDNLayer(\n","        (layers): ModuleList(\n","          (0): ConvNormal(\n","            (conv_normal): ConvBN(\n","              (net): Sequential(\n","                (0): Conv2d(416, 256, kernel_size=(1, 1), stride=(1, 1), bias=False)\n","                (1): BatchNorm2d(256, eps=1e-05, momentum=0.1, affine=True, track_running_stats=True)\n","                (2): ReLU(inplace=True)\n","                (3): Conv2d(256, 64, kernel_size=(3, 3), stride=(1, 1), padding=(1, 1), bias=False)\n","                (4): BatchNorm2d(64, eps=1e-05, momentum=0.1, affine=True, track_running_stats=True)\n","                (5): ReLU(inplace=True)\n","              )\n","            )\n","          )\n","          (1): ConvDownNormal(\n","            (conv_down): ConvBN(\n","              (net): Sequential(\n","                (0): Conv2d(416, 128, kernel_size=(1, 1), stride=(1, 1), bias=False)\n","                (1): BatchNorm2d(128, eps=1e-05, momentum=0.1, affine=True, track_running_stats=True)\n","                (2): ReLU(inplace=True)\n","                (3): Conv2d(128, 32, kernel_size=(3, 3), stride=(2, 2), padding=(1, 1), bias=False)\n","                (4): BatchNorm2d(32, eps=1e-05, momentum=0.1, affine=True, track_running_stats=True)\n","                (5): ReLU(inplace=True)\n","              )\n","            )\n","            (conv_normal): ConvBN(\n","              (net): Sequential(\n","                (0): Conv2d(416, 128, kernel_size=(1, 1), stride=(1, 1), bias=False)\n","                (1): BatchNorm2d(128, eps=1e-05, momentum=0.1, affine=True, track_running_stats=True)\n","                (2): ReLU(inplace=True)\n","                (3): Conv2d(128, 32, kernel_size=(3, 3), stride=(1, 1), padding=(1, 1), bias=False)\n","                (4): BatchNorm2d(32, eps=1e-05, momentum=0.1, affine=True, track_running_stats=True)\n","                (5): ReLU(inplace=True)\n","              )\n","            )\n","          )\n","        )\n","      )\n","      (2): MSDNLayer(\n","        (layers): ModuleList(\n","          (0): ConvNormal(\n","            (conv_normal): ConvBN(\n","              (net): Sequential(\n","                (0): Conv2d(480, 256, kernel_size=(1, 1), stride=(1, 1), bias=False)\n","                (1): BatchNorm2d(256, eps=1e-05, momentum=0.1, affine=True, track_running_stats=True)\n","                (2): ReLU(inplace=True)\n","                (3): Conv2d(256, 64, kernel_size=(3, 3), stride=(1, 1), padding=(1, 1), bias=False)\n","                (4): BatchNorm2d(64, eps=1e-05, momentum=0.1, affine=True, track_running_stats=True)\n","                (5): ReLU(inplace=True)\n","              )\n","            )\n","          )\n","          (1): ConvDownNormal(\n","            (conv_down): ConvBN(\n","              (net): Sequential(\n","                (0): Conv2d(480, 128, kernel_size=(1, 1), stride=(1, 1), bias=False)\n","                (1): BatchNorm2d(128, eps=1e-05, momentum=0.1, affine=True, track_running_stats=True)\n","                (2): ReLU(inplace=True)\n","                (3): Conv2d(128, 32, kernel_size=(3, 3), stride=(2, 2), padding=(1, 1), bias=False)\n","                (4): BatchNorm2d(32, eps=1e-05, momentum=0.1, affine=True, track_running_stats=True)\n","                (5): ReLU(inplace=True)\n","              )\n","            )\n","            (conv_normal): ConvBN(\n","              (net): Sequential(\n","                (0): Conv2d(480, 128, kernel_size=(1, 1), stride=(1, 1), bias=False)\n","                (1): BatchNorm2d(128, eps=1e-05, momentum=0.1, affine=True, track_running_stats=True)\n","                (2): ReLU(inplace=True)\n","                (3): Conv2d(128, 32, kernel_size=(3, 3), stride=(1, 1), padding=(1, 1), bias=False)\n","                (4): BatchNorm2d(32, eps=1e-05, momentum=0.1, affine=True, track_running_stats=True)\n","                (5): ReLU(inplace=True)\n","              )\n","            )\n","          )\n","        )\n","      )\n","      (3): MSDNLayer(\n","        (layers): ModuleList(\n","          (0): ConvDownNormal(\n","            (conv_down): ConvBN(\n","              (net): Sequential(\n","                (0): Conv2d(544, 128, kernel_size=(1, 1), stride=(1, 1), bias=False)\n","                (1): BatchNorm2d(128, eps=1e-05, momentum=0.1, affine=True, track_running_stats=True)\n","                (2): ReLU(inplace=True)\n","                (3): Conv2d(128, 32, kernel_size=(3, 3), stride=(2, 2), padding=(1, 1), bias=False)\n","                (4): BatchNorm2d(32, eps=1e-05, momentum=0.1, affine=True, track_running_stats=True)\n","                (5): ReLU(inplace=True)\n","              )\n","            )\n","            (conv_normal): ConvBN(\n","              (net): Sequential(\n","                (0): Conv2d(544, 128, kernel_size=(1, 1), stride=(1, 1), bias=False)\n","                (1): BatchNorm2d(128, eps=1e-05, momentum=0.1, affine=True, track_running_stats=True)\n","                (2): ReLU(inplace=True)\n","                (3): Conv2d(128, 32, kernel_size=(3, 3), stride=(1, 1), padding=(1, 1), bias=False)\n","                (4): BatchNorm2d(32, eps=1e-05, momentum=0.1, affine=True, track_running_stats=True)\n","                (5): ReLU(inplace=True)\n","              )\n","            )\n","          )\n","        )\n","      )\n","      (4): ParallelModule(\n","        (m): ModuleList(\n","          (0): ConvBasic(\n","            (net): Sequential(\n","              (0): Conv2d(608, 304, kernel_size=(1, 1), stride=(1, 1), bias=False)\n","              (1): BatchNorm2d(304, eps=1e-05, momentum=0.1, affine=True, track_running_stats=True)\n","              (2): ReLU(inplace=True)\n","            )\n","          )\n","        )\n","      )\n","    )\n","    (4): Sequential(\n","      (0): MSDNLayer(\n","        (layers): ModuleList(\n","          (0): ConvNormal(\n","            (conv_normal): ConvBN(\n","              (net): Sequential(\n","                (0): Conv2d(304, 256, kernel_size=(1, 1), stride=(1, 1), bias=False)\n","                (1): BatchNorm2d(256, eps=1e-05, momentum=0.1, affine=True, track_running_stats=True)\n","                (2): ReLU(inplace=True)\n","                (3): Conv2d(256, 64, kernel_size=(3, 3), stride=(1, 1), padding=(1, 1), bias=False)\n","                (4): BatchNorm2d(64, eps=1e-05, momentum=0.1, affine=True, track_running_stats=True)\n","                (5): ReLU(inplace=True)\n","              )\n","            )\n","          )\n","        )\n","      )\n","      (1): MSDNLayer(\n","        (layers): ModuleList(\n","          (0): ConvNormal(\n","            (conv_normal): ConvBN(\n","              (net): Sequential(\n","                (0): Conv2d(368, 256, kernel_size=(1, 1), stride=(1, 1), bias=False)\n","                (1): BatchNorm2d(256, eps=1e-05, momentum=0.1, affine=True, track_running_stats=True)\n","                (2): ReLU(inplace=True)\n","                (3): Conv2d(256, 64, kernel_size=(3, 3), stride=(1, 1), padding=(1, 1), bias=False)\n","                (4): BatchNorm2d(64, eps=1e-05, momentum=0.1, affine=True, track_running_stats=True)\n","                (5): ReLU(inplace=True)\n","              )\n","            )\n","          )\n","        )\n","      )\n","      (2): MSDNLayer(\n","        (layers): ModuleList(\n","          (0): ConvNormal(\n","            (conv_normal): ConvBN(\n","              (net): Sequential(\n","                (0): Conv2d(432, 256, kernel_size=(1, 1), stride=(1, 1), bias=False)\n","                (1): BatchNorm2d(256, eps=1e-05, momentum=0.1, affine=True, track_running_stats=True)\n","                (2): ReLU(inplace=True)\n","                (3): Conv2d(256, 64, kernel_size=(3, 3), stride=(1, 1), padding=(1, 1), bias=False)\n","                (4): BatchNorm2d(64, eps=1e-05, momentum=0.1, affine=True, track_running_stats=True)\n","                (5): ReLU(inplace=True)\n","              )\n","            )\n","          )\n","        )\n","      )\n","      (3): MSDNLayer(\n","        (layers): ModuleList(\n","          (0): ConvNormal(\n","            (conv_normal): ConvBN(\n","              (net): Sequential(\n","                (0): Conv2d(496, 256, kernel_size=(1, 1), stride=(1, 1), bias=False)\n","                (1): BatchNorm2d(256, eps=1e-05, momentum=0.1, affine=True, track_running_stats=True)\n","                (2): ReLU(inplace=True)\n","                (3): Conv2d(256, 64, kernel_size=(3, 3), stride=(1, 1), padding=(1, 1), bias=False)\n","                (4): BatchNorm2d(64, eps=1e-05, momentum=0.1, affine=True, track_running_stats=True)\n","                (5): ReLU(inplace=True)\n","              )\n","            )\n","          )\n","        )\n","      )\n","    )\n","  )\n","  (classifier): ModuleList(\n","    (0): ClassifierModule(\n","      (m): Sequential(\n","        (0): ConvBasic(\n","          (net): Sequential(\n","            (0): Conv2d(384, 384, kernel_size=(3, 3), stride=(2, 2), padding=(1, 1), bias=False)\n","            (1): BatchNorm2d(384, eps=1e-05, momentum=0.1, affine=True, track_running_stats=True)\n","            (2): ReLU(inplace=True)\n","          )\n","        )\n","        (1): ConvBasic(\n","          (net): Sequential(\n","            (0): Conv2d(384, 384, kernel_size=(3, 3), stride=(2, 2), padding=(1, 1), bias=False)\n","            (1): BatchNorm2d(384, eps=1e-05, momentum=0.1, affine=True, track_running_stats=True)\n","            (2): ReLU(inplace=True)\n","          )\n","        )\n","        (2): AvgPool2d(kernel_size=2, stride=2, padding=0)\n","      )\n","      (linear): Linear(in_features=384, out_features=2, bias=True)\n","    )\n","    (1): ClassifierModule(\n","      (m): Sequential(\n","        (0): ConvBasic(\n","          (net): Sequential(\n","            (0): Conv2d(384, 384, kernel_size=(3, 3), stride=(2, 2), padding=(1, 1), bias=False)\n","            (1): BatchNorm2d(384, eps=1e-05, momentum=0.1, affine=True, track_running_stats=True)\n","            (2): ReLU(inplace=True)\n","          )\n","        )\n","        (1): ConvBasic(\n","          (net): Sequential(\n","            (0): Conv2d(384, 384, kernel_size=(3, 3), stride=(2, 2), padding=(1, 1), bias=False)\n","            (1): BatchNorm2d(384, eps=1e-05, momentum=0.1, affine=True, track_running_stats=True)\n","            (2): ReLU(inplace=True)\n","          )\n","        )\n","        (2): AvgPool2d(kernel_size=2, stride=2, padding=0)\n","      )\n","      (linear): Linear(in_features=384, out_features=2, bias=True)\n","    )\n","    (2): ClassifierModule(\n","      (m): Sequential(\n","        (0): ConvBasic(\n","          (net): Sequential(\n","            (0): Conv2d(352, 352, kernel_size=(3, 3), stride=(2, 2), padding=(1, 1), bias=False)\n","            (1): BatchNorm2d(352, eps=1e-05, momentum=0.1, affine=True, track_running_stats=True)\n","            (2): ReLU(inplace=True)\n","          )\n","        )\n","        (1): ConvBasic(\n","          (net): Sequential(\n","            (0): Conv2d(352, 352, kernel_size=(3, 3), stride=(2, 2), padding=(1, 1), bias=False)\n","            (1): BatchNorm2d(352, eps=1e-05, momentum=0.1, affine=True, track_running_stats=True)\n","            (2): ReLU(inplace=True)\n","          )\n","        )\n","        (2): AvgPool2d(kernel_size=2, stride=2, padding=0)\n","      )\n","      (linear): Linear(in_features=352, out_features=2, bias=True)\n","    )\n","    (3): ClassifierModule(\n","      (m): Sequential(\n","        (0): ConvBasic(\n","          (net): Sequential(\n","            (0): Conv2d(304, 304, kernel_size=(3, 3), stride=(2, 2), padding=(1, 1), bias=False)\n","            (1): BatchNorm2d(304, eps=1e-05, momentum=0.1, affine=True, track_running_stats=True)\n","            (2): ReLU(inplace=True)\n","          )\n","        )\n","        (1): ConvBasic(\n","          (net): Sequential(\n","            (0): Conv2d(304, 304, kernel_size=(3, 3), stride=(2, 2), padding=(1, 1), bias=False)\n","            (1): BatchNorm2d(304, eps=1e-05, momentum=0.1, affine=True, track_running_stats=True)\n","            (2): ReLU(inplace=True)\n","          )\n","        )\n","        (2): AvgPool2d(kernel_size=2, stride=2, padding=0)\n","      )\n","      (linear): Linear(in_features=304, out_features=2, bias=True)\n","    )\n","    (4): ClassifierModule(\n","      (m): Sequential(\n","        (0): ConvBasic(\n","          (net): Sequential(\n","            (0): Conv2d(560, 560, kernel_size=(3, 3), stride=(2, 2), padding=(1, 1), bias=False)\n","            (1): BatchNorm2d(560, eps=1e-05, momentum=0.1, affine=True, track_running_stats=True)\n","            (2): ReLU(inplace=True)\n","          )\n","        )\n","        (1): ConvBasic(\n","          (net): Sequential(\n","            (0): Conv2d(560, 560, kernel_size=(3, 3), stride=(2, 2), padding=(1, 1), bias=False)\n","            (1): BatchNorm2d(560, eps=1e-05, momentum=0.1, affine=True, track_running_stats=True)\n","            (2): ReLU(inplace=True)\n","          )\n","        )\n","        (2): AvgPool2d(kernel_size=2, stride=2, padding=0)\n","      )\n","      (linear): Linear(in_features=560, out_features=2, bias=True)\n","    )\n","  )\n",")"]},"metadata":{"tags":[]},"execution_count":6}]},{"cell_type":"code","metadata":{"id":"IDe4QbeRVeLw","colab":{"base_uri":"https://localhost:8080/"},"executionInfo":{"status":"ok","timestamp":1621342352320,"user_tz":-180,"elapsed":844,"user":{"displayName":"Cabdiraxmaan Yusuf","photoUrl":"","userId":"01857871583179459739"}},"output
…
